data.pth (torch, 6186 bytes, 6 tensors)

l1.weight f4 [8, 57]
0	0x3e6bb23d	0.23017211
1	0xbdb07efb	-0.086179696
2	0xbe0ed919	-0.13950004
3	0x3e92e5b9	0.2869089
4	0x3e263106	0.16229638
5	0xbdac010b	-0.083986364
6	0xbe25180e	-0.16122457
7	0xbe86a0ef	-0.26294658
8	0x3ecd5a1b	0.40107808
9	0xbdfc096a	-0.12306483
10	0x3e523017	0.20526157
11	0xbe14ad56	-0.14519247
12	0x3e58d8cd	0.21176453
13	0x3ed3ea9c	0.4138993
14	0xbe24bf03	-0.1608849
15	0x3f124c29	0.5714746
16	0xbefdb072	-0.4954868
17	0xbdb66cc9	-0.08907468
18	0xbe2db9fc	-0.16965479
19	0xbe267ffe	-0.16259763
20	0xbe35ce53	-0.17754488
21	0x3c82651f	0.015917359
22	0xbd16b9a9	-0.036798153
23	0x3d40dfba	0.047088362
24	0xbe1a0b3e	-0.15043351
25	0xbe1a1988	-0.15048802
26	0xbeb0a552	-0.3450113
27	0x3e94ccc0	0.29062462
28	0xbdc870b8	-0.097871244
29	0xbd38b1c6	-0.045091413
30	0x3e93c1f2	0.28858906
31	0x3f085ecd	0.53269655
32	0x3f08b76b	0.53404874
33	0x3f17baef	0.59269613
34	0xbdfbc22c	-0.12292895
35	0xbe2f3b4b	-0.17112462
36	0xbd89d97e	-0.067309365
37	0xbcf5bf94	-0.029998578
38	0xbe6e1a8f	-0.23252319
39	0x3df643ae	0.120246276
40	0x3e5b9b57	0.21445976
41	0x3ea6b028	0.32556272
42	0x3e822b19	0.25423506
43	0x3c2ae41f	0.010430365
44	0xbe22ef6d	-0.15911646
45	0xbe0271da	-0.12738743
46	0xbe077a1c	-0.13230175
47	0x3e8a6eb6	0.2703759
48	0xbe017d01	-0.12645341
49	0xbe1e5892	-0.15463474
50	0x3d383a98	0.044977754
51	0xbda79e13	-0.08184447
52	0xbd326bea	-0.043559946
53	0xbb6ee1c0	-0.0036450475
54	0xbe24527a	-0.16047087
55	0xbdc93111	-0.09823812
56	0xbbbb4080	-0.005714476
57	0x3e988221	0.2978678
58	0xbef55e0c	-0.47923315
59	0xbef1a429	-0.47195557
60	0x3e1990f1	0.14996697
61	0x3e3ab0b8	0.18231475
62	0x3f35d60b	0.7102973
63	0xbe59c659	-0.2126707
64	0x3f063343	0.5242197
65	0x3efcf7c8	0.49407792
66	0x3e566a33	0.2093895
67	0x3ea3fb42	0.32027632
68	0xbee353e8	-0.44399953
69	0x3ec26499	0.37967375
70	0x3ebb2568	0.36551976
71	0x3e03b96b	0.128637
72	0x3f28222a	0.6567713
73	0x3eefaca2	0.46811396
74	0xbcc9c554	-0.024630226
75	0x3e7f2acf	0.24918674
76	0x3f2fafef	0.6862783
77	0x3e72e188	0.23718846
78	0xbe2fe12b	-0.17175739
79	0xbe032421	-0.12806751
80	0x3e4c1560	0.19930029
81	0x3e950300	0.2910385
82	0x3e81f126	0.25379294
83	0x3ec122d0	0.37721872
84	0x3eaf828c	0.34279287
85	0x3ec5fc74	0.3866917
86	0x3f2ad430	0.6673002
87	0x3efebfca	0.49755698
88	0x3f16fd80	0.5898056
89	0x3ec1a5ff	0.37821957
90	0x3f10e23e	0.5659522
91	0x3df09d82	0.11748792
92	0xbed51a64	-0.41621697
93	0x3e46b445	0.19404705
94	0x3e7e3392	0.2482436
95	0x3f07fd14	0.5312054
96	0x3ea7cb90	0.32772493
97	0x3e6bf7a1	0.23043682
98	0x3e8a4b12	0.270104
99	0x3e8e9881	0.27850726
100	0x3e14e2f7	0.14539705
101	0x3f40f46d	0.75372964
102	0x3f243855	0.64148456
103	0x3ec242b1	0.37941507
104	0x3e324ca8	0.17412055
105	0x3ec4602f	0.38354632
106	0x3f237dde	0.63863933
107	0xbe3a3e06	-0.18187723
108	0x3dc1d8eb	0.09465202
109	0x3e041a16	0.12900576
110	0xbe6a198a	-0.22861305
111	0x3f322b59	0.69597393
112	0xbea9abd1	-0.33138898
113	0x3e7673f8	0.24067676
114	0xbde9d9fe	-0.11418532
115	0x3f3a3fc3	0.7275354
116	0x3f301fb5	0.6879838
117	0xbe71f92a	-0.23630205
118	0xbdd14845	-0.102188624
119	0xbe58cb29	-0.2117125
120	0x3eca0e80	0.39464188
121	0xbee4e784	-0.44707882
122	0x3efbc10f	0.4917073
123	0x3ea473e8	0.3211968
124	0x3e9022ed	0.28151646
125	0xbea3dd2e	-0.32004684
126	0xbf07853a	-0.5293766
127	0xbf56aa3c	-0.8385351
128	0x3e82b4a6	0.2552845
129	0x3f0c9257	0.54910797
130	0x3f126acf	0.57194227
131	0xbdec01ed	-0.11523805
132	0xbe0455f4	-0.12923414
133	0xbe5d65d5	-0.21620877
134	0xbe9b72a4	-0.303609
135	0xbebcd395	-0.36880174
136	0x3eb2892d	0.34870282
137	0xbe9591b2	-0.2921272
138	0x3edf6732	0.4363342
139	0x3edd798f	0.43256804
140	0x3ef35d45	0.47532097
141	0xbef9f533	-0.48819885
142	0x3e3230a8	0.17401373
143	0x3d242b34	0.040080264
144	0x3e74327f	0.23847388
145	0x3f151e2f	0.5824918
146	0x3eedea7c	0.4646796
147	0x3ef696f5	0.48162046
148	0x3e09ff69	0.13476337
149	0xbef0a41a	-0.470002
150	0xbe5c7462	-0.21528772
151	0x3dd36c69	0.10323412
152	0xbec8775b	-0.3915356
153	0xbcd3039d	-0.025758559
154	0xbdfc9f25	-0.12335042
155	0xbeb36d4d	-0.35044327
156	0xbe9e5b9c	-0.30929267
157	0x3ead2b70	0.33822203
158	0xbd893fc9	-0.06701619
159	0xbe43d88f	-0.1912558
160	0xbe8e07de	-0.27740377
161	0xbe39a461	-0.18129112
162	0xbe5df3b0	-0.2167499
163	0xbe6e85c3	-0.23293214
164	0x3f031642	0.5120584
165	0xbe4a80a1	-0.1977563
166	0x3db4b5f5	0.08823768
167	0x3eefcb61	0.46834853
168	0x3a153bdb	0.0005692818
169	0xbe5285ac	-0.20558804
170	0xbe8f9299	-0.28041533
171	0x3ecae836	0.39630288
172	0x3d3dfd0c	0.046383902
173	0x3c92ce1b	0.017920544
174	0x3ef3e8ac	0.47638452
175	0x3ea8daa2	0.32979304
176	0x3ecab6e9	0.39592674
177	0xbdd70edb	-0.1050088
178	0xbe5608da	-0.20901814
179	0xbe2b9fc9	-0.16760172
180	0xbe8730aa	-0.26404315
181	0xbd0e1d40	-0.034695864
182	0x3f2a97e8	0.6663804
183	0x3f1cc078	0.61231184
184	0x3f43e7c5	0.7652553
185	0xbde8a2ff	-0.11359214
186	0xbf24183e	-0.6409949
187	0xbf2418ba	-0.6410023
188	0x3ee892db	0.45424542
189	0xbe731ae8	-0.23740733
190	0x3ee92490	0.45535707
191	0xbe8749a7	-0.2642338
192	0x3f3b038c	0.7305229
193	0x3dad743d	0.08469436
194	0x3f045da7	0.517054
195	0xbe50a3f4	-0.20375043
196	0xbe50bd53	-0.20384721
197	0xbedfdc2c	-0.43722665
198	0x3f0a0328	0.53911066
199	0x3ee9015c	0.4550885
200	0x3f08d264	0.5344603
201	0xbe8b4c54	-0.2720667
202	0xbf227861	-0.63464934
203	0xbebceba7	-0.36898538
204	0xbf1e9fec	-0.6196277
205	0xbdc3cd88	-0.09560686
206	0x3f6d8d0b	0.9279334
207	0xbdabfe16	-0.083980724
208	0xbdc9884a	-0.09840448
209	0xbea932c1	-0.33046535
210	0x3e6bd3f9	0.2303008
211	0x3e7d3057	0.24725471
212	0x3f1772a8	0.59159327
213	0x3ed3362f	0.41252276
214	0xbdb968a2	-0.0905316
215	0x3f14091a	0.5782639
216	0x3eb55fed	0.35424748
217	0xbe11738d	-0.14204235
218	0x3e9b79b9	0.30366305
219	0xbe0eddd5	-0.1395181
220	0x3efdb4e1	0.49552062
221	0x3ddb117d	0.10696695
222	0x3f0c602c	0.54834247
223	0xbda0e539	-0.07856221
224	0x3d89a0d3	0.06720128
225	0x3f212504	0.62947106
226	0x3f29938d	0.6624077
227	0x3e27c037	0.16381918
228	0x3de4cc55	0.11171786
229	0x3f2fd3fd	0.68682843
230	0x3f423f45	0.7587779
231	0x3e63f3ea	0.22261015
232	0x3dbff9e2	0.09373833
233	0xbd92c5e4	-0.07166651
234	0x3f2f9b3f	0.6859626
235	0xbe9951d2	-0.29945236
236	0x3af2134b	0.0018468885
237	0xbc3509bf	-0.011049687
238	0x3d9323dc	0.07184574
239	0xbe832a8d	-0.256184
240	0x3ebcaf66	0.36852568
241	0x3f2859a0	0.65761757
242	0xbde02f9e	-0.10946582
243	0x3e9241c2	0.28565794
244	0xbf13c8c4	-0.5772822
245	0xbc71be29	-0.01475481
246	0xbd9a3737	-0.07530063
247	0xbddd35a6	-0.10801248
248	0xbd8154f7	-0.06315034
249	0xbdf8278b	-0.12116917
250	0x3f224b1d	0.63395864
251	0xbce842c5	-0.02835215
252	0xbe4165b9	-0.1888646
253	0xbe3ce43e	-0.18446442
254	0xbec6ede9	-0.38853386
255	0x3e8f19e1	0.27949432

l1.bias f4 [8]
0	0x3efdad98	0.49546504
1	0x3f23d838	0.640018
2	0x3f56aefc	0.83860755
3	0x3f2419b6	0.6410173
4	0x3f13cc6b	0.5773379
5	0x3f411eeb	0.754378
6	0x3f0e1035	0.5549348
7	0x3efa7136	0.48914498

l2.weight f4 [8, 8]
0	0x3eb38177	0.3505971
1	0x3f491270	0.7854376
2	0xbf8762c3	-1.0577015
3	0x3fb8f680	1.4450226
4	0x3e2bff09	0.16796507
5	0xbe375716	-0.17904314
6	0x3fa01180	1.250534
7	0x3f327025	0.6970237
8	0xbf5ab45b	-0.8543145
9	0x3e8ce6d3	0.27519855
10	0x3f0c98c4	0.549206
11	0x3f93d82e	1.1550348
12	0xbf131f51	-0.5746966
13	0x3f887bc8	1.0662775
14	0xbf6f7027	-0.93530506
15	0x3e5f0119	0.21777762
16	0x3f5a49a6	0.8526863
17	0x3f788c92	0.97089493
18	0x3efa0b33	0.4883667
19	0x3ee2243a	0.44168264
20	0x3f763793	0.9617855
21	0xbe01aa3c	-0.12662596
22	0x3f2ea6ad	0.6822308
23	0xbfa95f1a	-1.3232148
24	0xbc5555e4	-0.013020966
25	0x3f9357a6	1.1511123
26	0x3f0ad237	0.5422701
27	0xbfa82bbc	-1.3138347
28	0xbf02b119	-0.5105148
29	0x3e418cde	0.18901393
30	0x3f3882ab	0.72074383
31	0x3f63431b	0.8877427
32	0xbf6943e1	-0.911192
33	0x3fa9414f	1.3223056
34	0x3df7580e	0.12077342
35	0xbeb1ca4f	-0.34724662
36	0xbf2221ee	-0.6333302
37	0x3e8a9701	0.27068332
38	0xbec2b5a1	-0.38029197
39	0x3e7eef0c	0.24895877
40	0x3f2e508e	0.68091667
41	0xbde174b2	-0.11008586
42	0x3f8d170e	1.1022661
43	0xbf0cc8ac	-0.549937
44	0x3f1db6b5	0.61606914
45	0x3f4b1f4d	0.79344636
46	0x3e741128	0.2383467
47	0xbec5f3bc	-0.38662517
48	0xbea92dee	-0.33042854
49	0x3ec0c934	0.37653506
50	0x3f6965ef	0.91171163
51	0xbece697e	-0.4031486
52	0x3f444b48	0.7667737
53	0x3f58a106	0.846207
54	0xbf77f108	-0.9685216
55	0x3e6aa064	0.22912747
56	0xbdd3b954	-0.10338083
57	0x3f2446b2	0.6417037
58	0xbe9d0f7d	-0.3067588
59	0xbe098cc5	-0.13432606
60	0x3ec33146	0.3812353
61	0xbf469dae	-0.7758435
62	0x3d474574	0.04865022
63	0x3f420bb9	0.7579914

l2.bias f4 [8]
0	0x3ee61c17	0.44943306
1	0x3efb9ba7	0.4914219
2	0x3d06f9b5	0.032952983
3	0x3e718817	0.2358707
4	0x3f140c09	0.57830864
5	0x3f17b1e7	0.5925583
6	0x3df45e33	0.119320296
7	0x3f004fbb	0.5012166

l3.weight f4 [7, 8]
0	0x3f4b47e9	0.794066
1	0x3f1de614	0.61679196
2	0xbfa3e962	-1.2805598
3	0xbf60d253	-0.8782093
4	0xbf73eb3b	-0.9528081
5	0xbe806f3c	-0.25084865
6	0xbfc42f77	-1.5326985
7	0xbf1df168	-0.6169648
8	0x3f5abde0	0.85445976
9	0xbf987329	-1.1910144
10	0x3f494389	0.78618675
11	0xbfa05497	-1.2525815
12	0xbea8a853	-0.3294092
13	0xbecd979e	-0.40154737
14	0xbfc7796f	-1.5583934
15	0x3ebf52a4	0.37367737
16	0xbea51551	-0.32242826
17	0xbf9b206a	-1.2119267
18	0x3f0395f8	0.5140071
19	0x3f3c8aca	0.73649275
20	0xbecaf20b	-0.3963779
21	0x3f207f74	0.6269448
22	0xbf56eae0	-0.8395214
23	0xbe8030e1	-0.25037292
24	0xbfa00055	-1.2500101
25	0x3e650fd0	0.22369313
26	0x3e5a3d05	0.2131234
27	0xbfa4cf47	-1.2875756
28	0xbf5f3de4	-0.8720381
29	0x3f057448	0.52130556
30	0x3f1a114a	0.6018263
31	0xbe32eaf2	-0.17472437
32	0x3ec26ae8	0.37972188
33	0xbf89a3fd	-1.075317
34	0xbf57335b	-0.8406274
35	0x3f330d69	0.6994234
36	0x3f0bdf16	0.5463728
37	0xbf74e45b	-0.9566094
38	0xbf2c69dd	-0.67349035
39	0x3f1e87d7	0.61926025
40	0xbf83d95e	-1.030071
41	0x3e5f3dbb	0.21800892
42	0xbfaeb21f	-1.3648108
43	0x3f1c0662	0.6094724
44	0x3f1283d5	0.5723241
45	0xbdb52c7e	-0.08846377
46	0x3eac8031	0.33691552
47	0x3e9abc0b	0.3022159
48	0xbde80845	-0.11329702
49	0x3ec88c49	0.3916953
50	0x3e4ecfea	0.201965
51	0xbf325f25	-0.6967643
52	0x3ef5afb2	0.47985607
53	0xbf380ce8	-0.71894693
54	0xbeb2f09a	-0.3494919
55	0xbef60d55	-0.48057047

l3.bias f4 [7]
0	0x3ef510af	0.4786429
1	0xbe038d38	-0.1284684
2	0xbcbdbe71	-0.023162099
3	0x3dbc2fe8	0.09188825
4	0x3d5f763e	0.054556124
5	0xbeb229ee	-0.34797615
6	0xbe2c8081	-0.16845895
